nohup: ignoring input
Namespace(batch_size=256, cond_disc=False, data_path=PosixPath('/apdcephfs/share_1316500/donchaoyang/data/audioset/features'), downsamp_factor=4, epochs=2000, lambda_feat=10, load_path=None, log_interval=100, n_layers_D=4, n_mel_channels=80, n_residual_layers=3, n_test_samples=8, ndf=16, ngf=32, num_D=3, save_interval=3000, save_path='/apdcephfs/share_1316500/donchaoyang/code3/SpecVQGAN/vocoder_audioset/logs/audioset', seq_len=8192, splits_path=PosixPath('data'))
Generator(
  (model): Sequential(
    (0): ReflectionPad1d((3, 3))
    (1): Conv1d(80, 512, kernel_size=(7,), stride=(1,))
    (2): LeakyReLU(negative_slope=0.2)
    (3): ConvTranspose1d(512, 256, kernel_size=(16,), stride=(8,), padding=(4,))
    (4): ResnetBlock(
      (block): Sequential(
        (0): LeakyReLU(negative_slope=0.2)
        (1): ReflectionPad1d((1, 1))
        (2): Conv1d(256, 256, kernel_size=(3,), stride=(1,))
        (3): LeakyReLU(negative_slope=0.2)
        (4): Conv1d(256, 256, kernel_size=(1,), stride=(1,))
      )
      (shortcut): Conv1d(256, 256, kernel_size=(1,), stride=(1,))
    )
    (5): ResnetBlock(
      (block): Sequential(
        (0): LeakyReLU(negative_slope=0.2)
        (1): ReflectionPad1d((3, 3))
        (2): Conv1d(256, 256, kernel_size=(3,), stride=(1,), dilation=(3,))
        (3): LeakyReLU(negative_slope=0.2)
        (4): Conv1d(256, 256, kernel_size=(1,), stride=(1,))
      )
      (shortcut): Conv1d(256, 256, kernel_size=(1,), stride=(1,))
    )
    (6): ResnetBlock(
      (block): Sequential(
        (0): LeakyReLU(negative_slope=0.2)
        (1): ReflectionPad1d((9, 9))
        (2): Conv1d(256, 256, kernel_size=(3,), stride=(1,), dilation=(9,))
        (3): LeakyReLU(negative_slope=0.2)
        (4): Conv1d(256, 256, kernel_size=(1,), stride=(1,))
      )
      (shortcut): Conv1d(256, 256, kernel_size=(1,), stride=(1,))
    )
    (7): LeakyReLU(negative_slope=0.2)
    (8): ConvTranspose1d(256, 128, kernel_size=(16,), stride=(8,), padding=(4,))
    (9): ResnetBlock(
      (block): Sequential(
        (0): LeakyReLU(negative_slope=0.2)
        (1): ReflectionPad1d((1, 1))
        (2): Conv1d(128, 128, kernel_size=(3,), stride=(1,))
        (3): LeakyReLU(negative_slope=0.2)
        (4): Conv1d(128, 128, kernel_size=(1,), stride=(1,))
      )
      (shortcut): Conv1d(128, 128, kernel_size=(1,), stride=(1,))
    )
    (10): ResnetBlock(
      (block): Sequential(
        (0): LeakyReLU(negative_slope=0.2)
        (1): ReflectionPad1d((3, 3))
        (2): Conv1d(128, 128, kernel_size=(3,), stride=(1,), dilation=(3,))
        (3): LeakyReLU(negative_slope=0.2)
        (4): Conv1d(128, 128, kernel_size=(1,), stride=(1,))
      )
      (shortcut): Conv1d(128, 128, kernel_size=(1,), stride=(1,))
    )
    (11): ResnetBlock(
      (block): Sequential(
        (0): LeakyReLU(negative_slope=0.2)
        (1): ReflectionPad1d((9, 9))
        (2): Conv1d(128, 128, kernel_size=(3,), stride=(1,), dilation=(9,))
        (3): LeakyReLU(negative_slope=0.2)
        (4): Conv1d(128, 128, kernel_size=(1,), stride=(1,))
      )
      (shortcut): Conv1d(128, 128, kernel_size=(1,), stride=(1,))
    )
    (12): LeakyReLU(negative_slope=0.2)
    (13): ConvTranspose1d(128, 64, kernel_size=(4,), stride=(2,), padding=(1,))
    (14): ResnetBlock(
      (block): Sequential(
        (0): LeakyReLU(negative_slope=0.2)
        (1): ReflectionPad1d((1, 1))
        (2): Conv1d(64, 64, kernel_size=(3,), stride=(1,))
        (3): LeakyReLU(negative_slope=0.2)
        (4): Conv1d(64, 64, kernel_size=(1,), stride=(1,))
      )
      (shortcut): Conv1d(64, 64, kernel_size=(1,), stride=(1,))
    )
    (15): ResnetBlock(
      (block): Sequential(
        (0): LeakyReLU(negative_slope=0.2)
        (1): ReflectionPad1d((3, 3))
        (2): Conv1d(64, 64, kernel_size=(3,), stride=(1,), dilation=(3,))
        (3): LeakyReLU(negative_slope=0.2)
        (4): Conv1d(64, 64, kernel_size=(1,), stride=(1,))
      )
      (shortcut): Conv1d(64, 64, kernel_size=(1,), stride=(1,))
    )
    (16): ResnetBlock(
      (block): Sequential(
        (0): LeakyReLU(negative_slope=0.2)
        (1): ReflectionPad1d((9, 9))
        (2): Conv1d(64, 64, kernel_size=(3,), stride=(1,), dilation=(9,))
        (3): LeakyReLU(negative_slope=0.2)
        (4): Conv1d(64, 64, kernel_size=(1,), stride=(1,))
      )
      (shortcut): Conv1d(64, 64, kernel_size=(1,), stride=(1,))
    )
    (17): LeakyReLU(negative_slope=0.2)
    (18): ConvTranspose1d(64, 32, kernel_size=(4,), stride=(2,), padding=(1,))
    (19): ResnetBlock(
      (block): Sequential(
        (0): LeakyReLU(negative_slope=0.2)
        (1): ReflectionPad1d((1, 1))
        (2): Conv1d(32, 32, kernel_size=(3,), stride=(1,))
        (3): LeakyReLU(negative_slope=0.2)
        (4): Conv1d(32, 32, kernel_size=(1,), stride=(1,))
      )
      (shortcut): Conv1d(32, 32, kernel_size=(1,), stride=(1,))
    )
    (20): ResnetBlock(
      (block): Sequential(
        (0): LeakyReLU(negative_slope=0.2)
        (1): ReflectionPad1d((3, 3))
        (2): Conv1d(32, 32, kernel_size=(3,), stride=(1,), dilation=(3,))
        (3): LeakyReLU(negative_slope=0.2)
        (4): Conv1d(32, 32, kernel_size=(1,), stride=(1,))
      )
      (shortcut): Conv1d(32, 32, kernel_size=(1,), stride=(1,))
    )
    (21): ResnetBlock(
      (block): Sequential(
        (0): LeakyReLU(negative_slope=0.2)
        (1): ReflectionPad1d((9, 9))
        (2): Conv1d(32, 32, kernel_size=(3,), stride=(1,), dilation=(9,))
        (3): LeakyReLU(negative_slope=0.2)
        (4): Conv1d(32, 32, kernel_size=(1,), stride=(1,))
      )
      (shortcut): Conv1d(32, 32, kernel_size=(1,), stride=(1,))
    )
    (22): LeakyReLU(negative_slope=0.2)
    (23): ReflectionPad1d((3, 3))
    (24): Conv1d(32, 1, kernel_size=(7,), stride=(1,))
    (25): Tanh()
  )
)
Discriminator(
  (model): ModuleDict(
    (disc_0): NLayerDiscriminator(
      (model): ModuleDict(
        (layer_0): Sequential(
          (0): ReflectionPad1d((7, 7))
          (1): Conv1d(1, 16, kernel_size=(15,), stride=(1,))
          (2): LeakyReLU(negative_slope=0.2, inplace=True)
        )
        (layer_1): Sequential(
          (0): Conv1d(16, 64, kernel_size=(41,), stride=(4,), padding=(20,), groups=4)
          (1): LeakyReLU(negative_slope=0.2, inplace=True)
        )
        (layer_2): Sequential(
          (0): Conv1d(64, 256, kernel_size=(41,), stride=(4,), padding=(20,), groups=16)
          (1): LeakyReLU(negative_slope=0.2, inplace=True)
        )
        (layer_3): Sequential(
          (0): Conv1d(256, 1024, kernel_size=(41,), stride=(4,), padding=(20,), groups=64)
          (1): LeakyReLU(negative_slope=0.2, inplace=True)
        )
        (layer_4): Sequential(
          (0): Conv1d(1024, 1024, kernel_size=(41,), stride=(4,), padding=(20,), groups=256)
          (1): LeakyReLU(negative_slope=0.2, inplace=True)
        )
        (layer_5): Sequential(
          (0): Conv1d(1024, 1024, kernel_size=(5,), stride=(1,), padding=(2,))
          (1): LeakyReLU(negative_slope=0.2, inplace=True)
        )
        (layer_6): Conv1d(1024, 1, kernel_size=(3,), stride=(1,), padding=(1,))
      )
    )
    (disc_1): NLayerDiscriminator(
      (model): ModuleDict(
        (layer_0): Sequential(
          (0): ReflectionPad1d((7, 7))
          (1): Conv1d(1, 16, kernel_size=(15,), stride=(1,))
          (2): LeakyReLU(negative_slope=0.2, inplace=True)
        )
        (layer_1): Sequential(
          (0): Conv1d(16, 64, kernel_size=(41,), stride=(4,), padding=(20,), groups=4)
          (1): LeakyReLU(negative_slope=0.2, inplace=True)
        )
        (layer_2): Sequential(
          (0): Conv1d(64, 256, kernel_size=(41,), stride=(4,), padding=(20,), groups=16)
          (1): LeakyReLU(negative_slope=0.2, inplace=True)
        )
        (layer_3): Sequential(
          (0): Conv1d(256, 1024, kernel_size=(41,), stride=(4,), padding=(20,), groups=64)
          (1): LeakyReLU(negative_slope=0.2, inplace=True)
        )
        (layer_4): Sequential(
          (0): Conv1d(1024, 1024, kernel_size=(41,), stride=(4,), padding=(20,), groups=256)
          (1): LeakyReLU(negative_slope=0.2, inplace=True)
        )
        (layer_5): Sequential(
          (0): Conv1d(1024, 1024, kernel_size=(5,), stride=(1,), padding=(2,))
          (1): LeakyReLU(negative_slope=0.2, inplace=True)
        )
        (layer_6): Conv1d(1024, 1, kernel_size=(3,), stride=(1,), padding=(1,))
      )
    )
    (disc_2): NLayerDiscriminator(
      (model): ModuleDict(
        (layer_0): Sequential(
          (0): ReflectionPad1d((7, 7))
          (1): Conv1d(1, 16, kernel_size=(15,), stride=(1,))
          (2): LeakyReLU(negative_slope=0.2, inplace=True)
        )
        (layer_1): Sequential(
          (0): Conv1d(16, 64, kernel_size=(41,), stride=(4,), padding=(20,), groups=4)
          (1): LeakyReLU(negative_slope=0.2, inplace=True)
        )
        (layer_2): Sequential(
          (0): Conv1d(64, 256, kernel_size=(41,), stride=(4,), padding=(20,), groups=16)
          (1): LeakyReLU(negative_slope=0.2, inplace=True)
        )
        (layer_3): Sequential(
          (0): Conv1d(256, 1024, kernel_size=(41,), stride=(4,), padding=(20,), groups=64)
          (1): LeakyReLU(negative_slope=0.2, inplace=True)
        )
        (layer_4): Sequential(
          (0): Conv1d(1024, 1024, kernel_size=(41,), stride=(4,), padding=(20,), groups=256)
          (1): LeakyReLU(negative_slope=0.2, inplace=True)
        )
        (layer_5): Sequential(
          (0): Conv1d(1024, 1024, kernel_size=(5,), stride=(1,), padding=(2,))
          (1): LeakyReLU(negative_slope=0.2, inplace=True)
        )
        (layer_6): Conv1d(1024, 1, kernel_size=(3,), stride=(1,), padding=(1,))
      )
    )
  )
  (downsample): AvgPool1d(kernel_size=(4,), stride=(2,), padding=(1,))
)
/data/miniconda3/lib/python3.7/site-packages/torchvision/io/image.py:11: UserWarning: Failed to load image Python extension: /data/miniconda3/lib/python3.7/site-packages/torchvision/image.so: undefined symbol: _ZNK2at10TensorBase21__dispatch_contiguousEN3c1012MemoryFormatE
…
